CONV_BASE.SUMMARY:
Model: "vgg16"
_________________________________________________________________
Layer (type)                 Output Shape              Param #
=================================================================
input_1 (InputLayer)         (None, 224, 224, 3)       0
_________________________________________________________________
block1_conv1 (Conv2D)        (None, 224, 224, 64)      1792
_________________________________________________________________
block1_conv2 (Conv2D)        (None, 224, 224, 64)      36928
_________________________________________________________________
block1_pool (MaxPooling2D)   (None, 112, 112, 64)      0
_________________________________________________________________
block2_conv1 (Conv2D)        (None, 112, 112, 128)     73856
_________________________________________________________________
block2_conv2 (Conv2D)        (None, 112, 112, 128)     147584
_________________________________________________________________
block2_pool (MaxPooling2D)   (None, 56, 56, 128)       0
_________________________________________________________________
block3_conv1 (Conv2D)        (None, 56, 56, 256)       295168
_________________________________________________________________
block3_conv2 (Conv2D)        (None, 56, 56, 256)       590080
_________________________________________________________________
block3_conv3 (Conv2D)        (None, 56, 56, 256)       590080
_________________________________________________________________
block3_pool (MaxPooling2D)   (None, 28, 28, 256)       0
_________________________________________________________________
block4_conv1 (Conv2D)        (None, 28, 28, 512)       1180160
_________________________________________________________________
block4_conv2 (Conv2D)        (None, 28, 28, 512)       2359808
_________________________________________________________________
block4_conv3 (Conv2D)        (None, 28, 28, 512)       2359808
_________________________________________________________________
block4_pool (MaxPooling2D)   (None, 14, 14, 512)       0
_________________________________________________________________
block5_conv1 (Conv2D)        (None, 14, 14, 512)       2359808
_________________________________________________________________
block5_conv2 (Conv2D)        (None, 14, 14, 512)       2359808
_________________________________________________________________
block5_conv3 (Conv2D)        (None, 14, 14, 512)       2359808
_________________________________________________________________
block5_pool (MaxPooling2D)   (None, 7, 7, 512)         0
=================================================================
Total params: 14,714,688
Trainable params: 0
Non-trainable params: 14,714,688
_________________________________________________________________
CONV_BASE LAYERS INFO:
0 ) <keras.engine.input_layer.InputLayer object at 0x000001F206AE3DC8> False        
1 ) <keras.layers.convolutional.Conv2D object at 0x000001F2066E7488> False
2 ) <keras.layers.convolutional.Conv2D object at 0x000001F2062D5B08> False
…
14 ) <keras.layers.pooling.MaxPooling2D object at 0x000001F206EEE608> False
15 ) <keras.layers.convolutional.Conv2D object at 0x000001F206EEEE88> False
16 ) <keras.layers.convolutional.Conv2D object at 0x000001F206EF5A48> False
17 ) <keras.layers.convolutional.Conv2D object at 0x000001F206EF7808> False
18 ) <keras.layers.pooling.MaxPooling2D object at 0x000001F206EFAFC8> False
MODEL.SUMMARY:
Model: "sequential_1"
_________________________________________________________________
Layer (type)                 Output Shape              Param #   
=================================================================
vgg16 (Model)                (None, 7, 7, 512)         14714688
_________________________________________________________________
flatten (Flatten)            (None, 25088)             0
_________________________________________________________________
dense_1 (Dense)              (None, 4096)              102764544
_________________________________________________________________
dense_2 (Dense)              (None, 4096)              16781312
_________________________________________________________________
dense_3 (Dense)              (None, 10)                40970
=================================================================
Total params: 134,301,514
Trainable params: 119,586,826
Non-trainable params: 14,714,688
_________________________________________________________________
Epoch 1/70
2020-05-09 15:05:52.448399: I tensorflow/stream_executor/platform/default/dso_loader.cc:44] Successfully opened dynamic library cublas64_10.dll
2020-05-09 15:05:52.647438: I tensorflow/stream_executor/platform/default/dso_loader.cc:44] Successfully opened dynamic library cudnn64_7.dll
…
